model.pth (torch, 377628 bytes, 10 tensors)

conv1.weight f4 [16, 1, 6, 6]
00000000: 3d22 e8bd 6ae0 f4bd adeb 253e 0abf ad3e
00000010: c949 53be 3ad5 5dbd e2e3 3bbd 155e e3be
00000020: 1bba f4bd 226e eb3e c7e5 b9be b605 93bd
00000030: 96df 8cbe bc08 94be daad 85be 24ec 3b3e
00000040: d292 9bbe bead 65be 5112 bf3e 0460 a03e
00000050: 2049 f83d 44c5 d83e d5fe f23d 0024 47bd
00000060: 86c4 853d 4895 5bbc 849c 843d 48a3 44bd
00000070: b894 64be 121d 15be 1fcd 18bf 8f7b 28bf
00000080: 4ae9 febe d36c b1be e0dd d0bd 1b1a 87be
00000090: 684f d13c 685a 333e db43 d7bd b50e 713d
000000a0: 6423 3f3e dc59 fbbd fca1 b03e 27ee bbbd
000000b0: 092e 8ebe f4d9 5739 024b a53e 4a44 31be
000000c0: f887 7f3e 1369 a0be 7865 c2be 4b29 183e
000000d0: bfea 363e 9d87 1dbd a18c 573e c47e 0ebf
000000e0: 6f38 d8bd 9a33 113f 4258 94bd e467 01be
000000f0: 0049 f2bd 93d0 a1be 6337 0b3e 1a1f 923e
00000100: 4303 c23c c205 c1bd 7713 953c eae8 443e
00000110: ce59 233e 4761 b83c dd64 17be 9886 713d
00000120: 98b7 363c 0bef 75be fb51 32bd a94e fdba
00000130: 49a6 433d caae 87be 47fb 8cbe 2add 60be
00000140: ab47 f2bc fc37 4b3e 16be bc3d d62b a5be
00000150: 7df2 66be 95f2 69bd 4872 5e3e c1ff 933e
00000160: 4d68 a5be bdbf 25be c214 1c3e fcf7 1b3e
00000170: 0210 823e f561 f63d 3600 ffbe b189 5abe
00000180: 6dc1 573e 3a66 403e c8d9 0a3e 3c89 95be
00000190: b06a 18bf cf13 ed3d c5e2 33bd 0a31 54bc
000001a0: 772a ba3a 7364 96be 6b63 47bd ccfa dc3d
000001b0: 4e91 003d e46f 063d de74 23bd 1501 df3d
000001c0: e511 a53d c904 04be a08c 7dbd e090 413d
000001d0: 149a 8a3e 62a0 563e cb25 733e d269 4abd
000001e0: 74f3 7abd a27c 243e 16b3 6e3e 18a2 753e
000001f0: a582 723d 4789 c1bd 2711 c53d 2d09 37bd
00000200: a92a 27be cc42 4abe 52fe d9bd 2437 363d
00000210: 13c9 62bb 57dc a6be 52cb 84be fb13 c9be
00000220: f66f 5abe 71eb 22be 8ec0 7bbc a9c7 0abe
00000230: 7464 a4bd 42f8 723d f2b6 ed3d 71ca a0ba
00000240: 0a37 003e 29d6 163e 31ec 343e 5078 1fbe
00000250: 2468 5ebe 34b3 503d 1894 86bd 764e 80bd
00000260: 9627 733e 4d48 78bd 5656 54be f4c9 f63d
00000270: d01e 233e 79ab 2f3d 05cc 3a3e 5c24 adbb
00000280: ebb6 acbe f621 3dbd c78a 033d a931 bb3d
00000290: 5605 44bc 515d 29bd 2788 c4be 0ace 9c3d
000002a0: 679f 913d 55ad 033e 30d6 85bd ae2b 66bd
000002b0: 5e12 c7bd de19 98bd 7d79 1b3e 68e5 1e3e
000002c0: c043 a5bd 20f7 adbd 4f44 2abe 9f45 143e
000002d0: 7905 5e3d 1b89 dbbb 2740 323e a5bf 1a3e
000002e0: d1f9 e43c 7fa9 cdbd 3fee 1bbd b624 a13d
000002f0: 1fb7 81be 2148 03bf 9689 c0be 7365 6abe
00000300: b14f 8e3d 3012 82bd 8438 59be 8941 a5be
00000310: d1bd 13be a056 19be 1d4f a13c 47d3 8b3d
00000320: 980c ca3d 300f 1a3e 701c 373e bb9f c03d
00000330: 9004 333b afb6 223d 78f6 363e 75cd 843e
00000340: 53bd 9e3e 5d8b 3e3e aef0 48be 00c1 dd3b
00000350: cd46 c63d dc56 303d a448 3e3c 0a01 da3d
00000360: 3ecb 2cbe af38 3a3e 0e0d 5cbd f33f 0bbc
00000370: 6c9e 64bb 1ff4 cb3e 5d13 07bd 4d00 4c3e
00000380: 1e95 34bd fe11 eabe 42b7 7b3d 1950 ab3e
00000390: 1fde 823d c4ef 8fbd 0be6 4abe ca67 e9be
000003a0: 5f6a 04bf 5faf cfbc f16e 203d 5c1b 663e
000003b0: a16a ee3d 40d9 febd 959d 9dbe eff3 47be
000003c0: 31f6 733c e20b 7d3e e559 6f3e 9b58 463e
000003d0: 7ba4 313e 4bef c43d 6ac6 93bd c3e0 4cbe
000003e0: e875 5abd 4b1e f6bd a24a 153e fe03 893d
000003f0: a028 ea3d 1882 c4bc 6604 52be 6392 fabd
-0.113346554 -0.11956866 0.16203184 0.33934814 -0.20633616 -0.054158427 -0.045871623 -0.44407716
-0.11949559 0.45982462 -0.3630812 -0.07178824 -0.27514333 -0.28912914 -0.261092 0.18351799
-0.30385453 -0.22429559 0.37318662 0.31323254 0.121233225 0.42338002 0.118650116 -0.048618317
0.065316245 -0.013402291 0.064751655 -0.04800728 -0.22322357 -0.1456187 -0.5968799 -0.65813535
-0.4978736 -0.3465334 -0.10198569 -0.26387104 0.02555056 0.17514956 -0.10510989 0.058851916
0.18665844 -0.12272999 0.34498584 -0.09176283 -0.27769497 0.00020585192 0.3228379 -0.17311206
0.24954212 -0.31330165 -0.3796804 0.14859502 0.17862986 -0.03845941 0.2104974 -0.5566218
-0.10557639 0.5671936 -0.07243396 -0.12637287 -0.1183033 -0.31604442 0.13595347 0.28539354
0.023683196 -0.09424926 0.018197758 0.19229475 0.15952227 0.022507323 -0.1478457 0.05896625
0.011152171 -0.24016969 -0.043535214 -0.0019325811 0.047766004 -0.2650054 -0.2753546 -0.21959367
-0.02957519 0.19845575 0.092159435 -0.32260007 -0.2255344 -0.05711611 0.21723282 0.28906062
-0.32306138 -0.16186424 0.15242293 0.15231317 0.25402838 0.120304026 -0.49804848 -0.21341588
0.2106988 0.18788996 0.1355964 -0.29206264 -0.5953779 0.11576044 -0.043917436 -0.012951145
0.0014203329 -0.29373512 -0.048678797 0.10790023 0.031388573 0.03282155 -0.039906375 0.10888878
0.08060054 -0.1289245 -0.06190169 0.047257304 0.27070677 0.20959619 0.23744886 -0.049417324
-0.06126733 0.16063169 0.23310503 0.23987615 0.059206624 -0.09450012 0.09622412 -0.044686485
-0.16324867 -0.19752043 -0.10644211 0.04448618 -0.0034604713 -0.3258998 -0.2593637 -0.39273056
-0.21331772 -0.15910126 -0.015365733 -0.13552727 -0.080269724 0.05931879 0.1160716 -0.0012267363
0.12520996 0.14730133 0.17668225 -0.1557324 -0.21719414 0.05095215 -0.065712154 -0.06264965
0.2374557 -0.060615826 -0.2073606 0.12050238 0.15929723 0.04288814 0.1824189 -0.0052838754
-0.33733305 -0.046174966 0.03211477 0.09140331 -0.011964163 -0.04134876 -0.38385126 0.07656486
0.07110482 0.1285909 -0.06534994 -0.056194 -0.097203 -0.07426809 0.15183063 0.15517199
-0.08069563 -0.08494401 -0.1662762 0.14479683 0.054204438 -0.006699694 0.17407285 0.15112169
0.027951153 -0.100420944 -0.038069006 0.0786833 -0.25335023 -0.51281935 -0.3760497 -0.22890262
0.06948794 -0.06351125 -0.21212965 -0.32276562 -0.14427878 -0.14974451 0.019691044 0.06827407
0.09865683 0.15044856 0.17881942 0.09405466 0.0027315952 0.039725002 0.17867458 0.25938
0.31003818 0.1860785 -0.19623062 0.006767392 0.09681473 0.043051586 0.011613999 0.106447294
-0.16874406 0.18185686 -0.053723387 -0.008499133 -0.0034884466 0.39834687 -0.03297745 0.1992199
-0.04408752 -0.45716852 0.061454065 0.33459547 0.063900225 -0.070281535 -0.19814317 -0.45586997
-0.5172481 -0.025352178 0.039168302 0.22471374 0.116414316 -0.12443781 -0.30784288 -0.19526647
0.01489024 0.24711564 0.23374136 0.19369738 0.173479 0.09615954 -0.07215579 -0.20007615
-0.0533351 -0.12017497 0.14579251 0.066902146 0.1143353 -0.023987815 -0.2050949 -0.12234952

conv1.bias f4 [16]
00000000: 346c 1abc b427 d7be e2bf f7bd b5fe 75be
00000010: 2692 7cbe 4de8 9fbe e3ee f3be 2591 0fbe
00000020: 31f8 a5be 8df3 a3bd b434 9bbc 94f7 9c3e
00000030: 908e 2fbd e340 3dbe 104c a5be 77f4 89bc
-0.009425212 -0.4202248 -0.120971456 -0.24022944 -0.24665126 -0.3123192 -0.47643194 -0.14020212
-0.32415918 -0.08005438 -0.01894603 0.30657637 -0.042860568 -0.18481784 -0.32284594 -0.016840203

conv2.weight f4 [32, 16, 6, 6]
00000000: 5d09 103e 2921 343e fa34 f33c 77e9 80be
00000010: 2d9b 053d 2c94 513e 636d 953e d36b 833e
00000020: df24 673e c1de 213e d298 bc3e 23b7 a03e
00000030: f595 043e 7eb1 fd3d 8c02 f13c 86fe 373e
00000040: f0b4 4abe c0b9 e73d 4754 babd a04e 843e
00000050: 3e14 8cbe 30a1 5fbe a2a6 803e 59d4 1b3f
00000060: 5fa0 2bbe 2f8b 19be c9b2 abbe 7834 99be
00000070: 2b84 053e a2d7 1a3f 9e99 79be a0cf 79be
00000080: 5fee 13be 7f45 adbe 7fe4 173d 8c89 e43e
00000090: 2f63 db3c 644e 1bbd b298 8c3d 0602 163d
000000a0: 4c60 adbd 3162 6a3d b9ee f6bd eebb 313e
000000b0: 6a65 dc3d ea4e 873d e6ac 54be 3e0b abbe
000000c0: 39f9 2b3d 785f 3c3e e0d7 4cbe 37fd 68bd
000000d0: 7e9c 0d3d 8c0c f0bd c95b 2f3e 28f1 b63c
000000e0: f026 033e 79b4 36bd 5d7a 833e 61b4 c4bc
000000f0: a76b 50bd 3b22 803b a43f 503e ac28 6ebd
00000100: 532e d43e 0d71 1a3e 216d c7bd f435 263e
00000110: b086 003e cea3 07be 2a3c 3b3e be1c 893e
00000120: 240e 53bb 554c d1bc f940 64bd b97d 253e
00000130: 7482 f7bd a8d0 a0bd d578 003e 4266 bb3d
00000140: 6e89 b33d 5269 14be f905 af3d d432 a43e
00000150: 39b1 09be a8e7 163d 9620 7b3e ea3b cebd
00000160: 700a efbd f136 b03c 9a6d ebba ca1d d53d
00000170: 32e0 03bd 6130 cfbd 6c79 193e e95b e13d
00000180: b6e0 183e 2e44 b23b 7d6f 493c 27f0 13be
00000190: 75dc c43d a242 a6bd 5e2e 143e 775f 0ebe
000001a0: 7c34 61bb de3f 9fbe 01f0 c63c 6b9e f4bb
000001b0: 527c 923c 4a8a fd3d ed54 d13d 1ca2 9b3e
000001c0: 5579 963e 818d a43c becc c13d 8120 b73d
000001d0: 3069 013e 58a7 013d c85d 1fbd e68b f53c
000001e0: 69a5 2abd f2f3 dcbd 2ff1 513d 0efb 9a3e
000001f0: 1fb2 8c3d 7585 f83c c8bc de3c f571 d73d
00000200: 2392 453c eadb 9fbc ff4f 48be 297d 333d
00000210: b28b c03b 75da 963d bab4 05be daa6 c9be
00000220: 4ba0 56be 5bdd 26be 825e fabc 66f1 283e
00000230: 0207 ec3c 31f3 98be 157f 2dbd 2ab8 9fbd
00000240: 202d a5be b2a3 9d3d 258f 883d f12e 21bd
00000250: 6829 6dbe 1a65 d6bc 5bba 24bd 9ca2 3e3d
00000260: f527 5e3d de4c d9b9 fe1f 47be ade8 ba3d
00000270: f38c 13be 5d40 ffbd fa72 c23d d512 bc3c
00000280: 6b2e b2bd 1969 123e 58be 31be bf19 93bd
00000290: b437 fe3d 8c77 34bd a9f4 e7bd 09aa 953d
000002a0: 9641 73be 4886 7e3e f6f5 0a3e 3a07 ebbd
000002b0: a406 85bd 441b 2c3e 4e7a f7bd 225f 973e
000002c0: 2e81 173e 0fe5 4cbc 2332 9abe e4d7 ab3d
000002d0: 6163 5dbe 0203 02be 50cc 77bd cdef c4bb
000002e0: 1ff7 46be 212c a8be 4c79 3ebe 550f 793c
000002f0: 06ed 1c3e 1d3b 953e 3ce8 493e 53e0 0a3d
00000300: 34b6 083d 53a9 ed3c cb38 51be a113 dbbd
00000310: 8b66 f33d faa7 e2bc 3298 b5bc 8f4f a3bd
00000320: 1d89 25bd a52d 3abe b14a d9bd f300 d6bc
00000330: 3e6e 12be c699 3abd f191 c5bd 84ad 22be
00000340: a43b 6fbe 1970 04be acaa ee3d 44d9 a93d
00000350: 7cad ae3d 8791 3c3d 3c96 5abd 0591 cebd
00000360: 1f40 bb3d ea52 28be 27fb f03d dea5 a3bb
00000370: 2ba9 29be 46bb 283d 510c fd3b 07f5 2f3c
00000380: dde7 1dbe a9ea ed3d 3137 223d 130f d13d
00000390: 9ad7 013e 8c04 df3d 0216 dcbd 240d 30be
000003a0: f596 40bb e3df 63bc 419b cfbd 7b19 9a3d
000003b0: b3ca d13e 550a 2c3e cc32 63be 34a4 e4bd
000003c0: e7ed c2be 0295 08be 9114 003e a57f 393e
000003d0: dba5 86be c442 113e cf13 dbbc 0560 c73d
000003e0: d4c8 e8bd b198 943e 0716 8cbd 7588 b3bc
000003f0: cd83 263d 5315 38bd 4c87 2abe 42d2 9cbe
0.14066072 0.17590775 0.029688347 -0.2517812 0.03261869 0.2046668 0.29185018 0.256682
0.22572659 0.1580763 0.36835343 0.31389722 0.12947829 0.123873696 0.02942016 0.17968187
-0.19795585 0.11314726 -0.09098106 0.25841236 -0.27359194 -0.21838832 0.2512713 0.6087089
-0.16760395 -0.149945 -0.3353484 -0.29922843 0.130387 0.6048528 -0.24375007 -0.24395609
-0.144464 -0.33842084 0.037083145 0.4463619 0.026780693 -0.037916556 0.06865062 0.036623023
-0.08465633 0.05722255 -0.120572515 0.17356846 0.10761531 0.066068485 -0.2076908 -0.33407015
0.041985724 0.18395793 -0.20004225 -0.05688211 0.03457307 -0.11721143 0.17124857 0.02233179
0.12807822 -0.044605706 0.25679293 -0.024011793 -0.050883915 0.0039103306 0.20336777 -0.058144256
0.41441593 0.15082188 -0.097376116 0.16231519 0.12551379 -0.1324608 0.1828467 0.2677974
-0.0032204473 -0.025549093 -0.055726025 0.1616124 -0.12085429 -0.07852298 0.12546094 0.091503635
0.08766447 -0.14493302 0.08546061 0.3207003 -0.13446511 0.03684202 0.2452415 -0.100700215
-0.11671913 0.021510573 -0.0017961741 0.104060724 -0.03219623 -0.101166494 0.14987725 0.110038586
0.1492947 0.0054402566 0.012294647 -0.1444708 0.09612361 -0.08118178 0.14470813 -0.13903604
-0.0034363559 -0.31103414 0.024284365 -0.007465174 0.017881546 0.12379892 0.102212764 0.30397117
0.29389444 0.020087006 0.094628796 0.089417465 0.12637782 0.031653732 -0.038907796 0.029973935
-0.041661654 -0.107887164 0.0512554 0.30269665 0.068699114 0.030337075 0.027189627 0.105197825
0.0120587675 -0.019514043 -0.19561766 0.043820534 0.005876028 0.07365886 -0.13057223 -0.3938511
-0.20959584 -0.16295378 -0.030562643 0.16498336 0.028811935 -0.2987304 -0.042357523 -0.077987984
-0.3226099 0.07697238 0.06667928 -0.039351407 -0.23160326 -0.026171256 -0.040216785 0.046541795
0.054237325 -0.00041446736 -0.19445798 0.09126411 -0.14409237 -0.12463448 0.09494586 0.022958199
-0.0870026 0.14297904 -0.17357767 -0.07182645 0.12412968 -0.04405932 -0.11325962 0.07307822
-0.23755488 0.24855912 0.13570389 -0.11475988 -0.06495407 0.16807276 -0.12083875 0.29564768
0.14795372 -0.012505784 -0.30116376 0.08390787 -0.21619941 -0.1269646 -0.060497582 -0.006010032
-0.19430207 -0.32846168 -0.18600959 0.015201409 0.15324792 0.29146662 0.19717497 0.03390534
0.033376887 0.029011404 -0.20431821 -0.10697103 0.11884793 -0.027667988 -0.022167299 -0.07974159
-0.040413965 -0.18181475 -0.106099494 -0.0261235 -0.14299867 -0.045556806 -0.09646977 -0.15886503
-0.23362595 -0.12933387 0.11653647 0.08293393 0.08529183 0.046037223 -0.05336593 -0.10086254
0.091430895 -0.16437879 0.117666535 -0.004994138 -0.16568439 0.041194223 0.0077224155 0.010739571
-0.1542048 0.116170235 0.039603416 0.10207953 0.12679902 0.10889539 -0.10746385 -0.17192513
-0.0029386852 -0.013908359 -0.10137034 0.07524391 0.4097496 0.16800816 -0.22187346 -0.11164132
-0.3807213 -0.13338092 0.12507845 0.18115099 -0.26298413 0.14185625 -0.026742844 0.09735111
-0.1136643 0.29022744 -0.06840139 -0.021915654 0.04065304 -0.04494221 -0.16653174 -0.30629164

conv2.bias f4 [32]
00000000: 03b2 69be 1ca4 03bc e98a 11be 5fc9 a1ba
00000010: 1691 3fbe 6a85 20be d466 a6bc 40b8 8ebd
00000020: 63c9 0bbd c51d 90be 4089 c03b 9708 3bbe
00000030: fc1a 5c3d a1b8 3b3e bb2c 08be e2c1 2cbe
00000040: bbca e1bb 84f3 cfbc 9316 5d3d ef57 50bd
00000050: ec7c 33be 4447 61be 8e92 2bbc 42e7 ba3c
00000060: 6c3e a1bd feb5 73bd 9d0a 44bd 9664 ce3b
00000070: 34d5 9fbd 6634 44be fd3d 4dbe f31e 47be
-0.22821812 -0.008034732 -0.14213146 -0.0012343338 -0.1870769 -0.15675893 -0.020312704 -0.06968737
-0.034127604 -0.28147712 0.0058757365 -0.18264996 0.05373667 0.18332149 -0.13298313 -0.16870835
-0.0068906224 -0.025384672 0.053976607 -0.05086511 -0.17528123 -0.21999842 -0.010471953 0.02281535
-0.07873234 -0.059499733 -0.047861684 0.006298612 -0.07804337 -0.19160613 -0.20043178 -0.194454

fc1.weight f4 [120, 512]
00000000: 7872 983c eef4 903c c02f b6bc 5dda a1bd
00000010: 4d02 30bc 8517 b63c d9d9 30bd 3714 a2bb
00000020: f929 33bd cb38 dfbb 53bf a5bc dd03 3cbc
00000030: 0fbe ad3b a37b 46bd 694f 56bd b02f 40bc
00000040: 9325 36bd 5191 703c 496d 22bd 8ca0 7b3c
00000050: 310b 813c 9d54 afbc 8259 02bd 80c6 fa3c
00000060: 2dd6 69bc 8f45 b23c 0339 a23c 4db5 d1bc
00000070: b86f efbc 27c4 f2bc 6620 f73c 1eeb c33c
00000080: b933 76bd eae5 50bd 4e62 76bd 1c7a d73c
00000090: 761f 0fbd 975a a2bc a222 16bd 2b31 93bc
000000a0: 4b5c 523b 4a91 19bb 08a2 a63b 34f8 b5bc
000000b0: f1e3 3fbd 913d 82bd bf88 84bd 7cb0 79bc
000000c0: 42a5 303c 9364 ed3b 2355 243d 9c0b 1a3d
000000d0: 42b7 8fbc 378e 96bc 33dd eb3c 2a6c 67bc
000000e0: 0060 e7bc 645d 8dbc 85db 853a 5bed cbbb
000000f0: f6dc a9bb bd39 543b 9df1 f83b acca 51bd
00000100: ddac 1dbd 500d b73c 5d59 02bd 32ba 4bbd
00000110: b3e9 4b3c 8bde 03bd 8e75 e63c d6c8 d2bc
00000120: c1b1 ac3c 69a5 b83b d9d1 19ba 1f5f 35bd
00000130: bb81 0dbd afe0 0bbd 4f88 52bd cc0c 5ebd
00000140: 0e77 04bd 240d 76bb 68d2 cb3c 9f48 46bd
00000150: 2ec2 eebc 4284 2cbd 709e a63c d829 cd3c
00000160: 2d23 743c aab8 dd3b 2574 393c 6042 af3a
00000170: b886 503c c426 c2bc 1777 973c 79dc 5e3c
00000180: 2a3e 0abc e912 17bd 0879 9e3b d757 0cbd
00000190: 089d 2bbc bc13 0ebd d215 9fbc abeb c4bc
000001a0: e553 cc3c 47a8 c63b 5979 a4bc 2f4a b9bc
000001b0: 7198 c9bc 46bd 13bd 6411 d4bc 7f45 07bd
000001c0: 613d a2b9 b586 9bbd 23f5 313c 2afa b8bc
000001d0: 2664 d1bc 1210 3fbc c6c9 d8bc 3d78 c7bc
000001e0: 672f 60bc 3c07 bcbb 36a2 68bd 8ea1 fdbb
000001f0: 9b2c bfbb 68b4 14bd 0404 c63c 1a73 03bd
00000200: bbfa 85bd b1aa d0bc 4e5b 8dbd 7956 38bd
00000210: d889 893c 3e3c 9bbd 20a8 3ebc ae26 0b3d
00000220: d94e e0bc 73bb b5bc ffc1 17bd 48ea ce3c
00000230: 4a6f 36bd c838 a43c 2776 d73c 9a21 cabc
00000240: bbed fe3b 91dc 73bc db1c 473b 6029 23ba
00000250: 7efc 583c d9cf 123d 52ef 3bbd 3e52 4fbd
00000260: 754d 5bbd d54e 6ebb a5c5 013d 9d99 6b3c
00000270: 70a0 8fbd a1ec dbbc 046a a4bb 4952 253c
00000280: babc f5ba e1a7 3fbd e280 de3b dd07 84bc
00000290: d175 acbc 9a4e ef3b d07e 54bd e494 e7bc
000002a0: 3c0a 0dbd 7d1f e9bc 3128 30bd 2403 dbbc
000002b0: 2cd2 5a3c 56b6 f43c d3d0 fdbc 4308 ca3c
000002c0: 6a1a 9fbc 006e 62bd a536 55bd 43d0 6bbc
000002d0: 0395 14bb c72c 3abd 5513 203c 9c8d 8abd
000002e0: d8fc 8f3c ead7 8abd ed17 79bd 3c29 c6bc
000002f0: 32da 07bd 88f7 e83b e2c3 11bc 834d 8fbc
00000300: 1b74 fb3c 70a0 bcbc b39c 98bd d4c2 c3bc
00000310: c705 98bc 6897 093d 0033 e3bc c21b 22b7
00000320: 3e7b 61bc 83fd 0ebb ff62 c73c 1724 7d3c
00000330: 3209 07bd 6c83 85bd 315f 3abc 005a 9abc
00000340: 14c0 01bd c038 aebc 5c17 ebbc b2eb fb3c
00000350: 9f91 ec3c ee6f be3c c083 ff3c eeeb ccbc
00000360: b2ed d6bc f4bc 80bd e9f4 f73b 2832 2dbd
00000370: c7c4 1cbc 03ef 13bd d3a5 2ebd 5f35 61bd
00000380: 5a7a 5cbd ec0e b5bc b062 d23c 5d9b 3139
00000390: a573 92bb 7eb6 86bd 5887 24bd 0b1b 89bd
000003a0: 2607 7b3c 6cfd cd3b 3044 3abd 3dc4 94bd
000003b0: f76d ccb9 724f ec3b 752a 003c ac6a 4dbd
000003c0: 3df0 d93c afe4 183c ac9f 10bd db2c e63c
000003d0: 3cf8 4dbd 3399 31bd b0e6 153a 09a4 54bd
000003e0: f44a e5bc 367c 22bd ec5b 19bb 9831 84bb
000003f0: 6f51 a43b 0923 8abc f8d0 aa3c ef91 a13b
0.01860927 0.017694917 -0.022239566 -0.079029776 -0.010742736 0.022228012 -0.043176506 -0.0049462575
-0.0437412 -0.00681219 -0.020232832 -0.01147553 0.0053021978 -0.048457753 -0.052321825 -0.01173012
-0.044469427 0.014683084 -0.039655004 0.015358102 0.015752407 -0.021402651 -0.031823643 0.03061223
-0.014272255 0.021761684 0.019802576 -0.025599146 -0.029228076 -0.029634548 0.030166816 0.023915824
-0.06010792 -0.051000513 -0.060152344 0.026303343 -0.034942113 -0.019818587 -0.036654122 -0.017967781
0.0032098468 -0.0023432546 0.0050852336 -0.022213079 -0.04684824 -0.06359399 -0.06471395 -0.015239831
0.010781588 0.0072446554 0.040120255 0.037608728 -0.017543439 -0.01837836 0.028792 -0.014124909
-0.028244019 -0.017256446 0.0010212517 -0.0062233633 -0.0051838113 0.0032383048 0.007597162 -0.051218674
-0.038494933 0.022345215 -0.031823505 -0.049738117 0.012445855 -0.032194655 0.028132226 -0.025730532
0.021080853 0.005634953 -0.00058677566 -0.044280168 -0.03454755 -0.03414982 -0.051399525 -0.054211423
-0.032340102 -0.0037544454 0.024880603 -0.0484091 -0.029145326 -0.04211832 0.02033922 0.025044367
0.014900965 0.0067663984 0.011319195 0.0013371222 0.012727432 -0.023700126 0.018489404 0.013602369
-0.008437673 -0.03688327 0.0048362054 -0.034263458 -0.010474451 -0.03468679 -0.019419584 -0.024038156
0.024942348 0.0060625407 -0.020077394 -0.022618381 -0.024608823 -0.036069177 -0.025887199 -0.03302526
-0.0003094478 -0.07594053 0.010861668 -0.022580225 -0.02556045 -0.011661546 -0.0264634 -0.024349326
-0.013683177 -0.005738167 -0.05679532 -0.007740206 -0.005834175 -0.03630486 0.024171837 -0.03209219
-0.06541964 -0.025472017 -0.069021806 -0.04500434 0.016789362 -0.0757985 -0.011636764 0.033972435
-0.027381347 -0.02218411 -0.037050243 0.025258198 -0.044539727 0.020046607 0.026301457 -0.024674226
0.0077798045 -0.01488413 0.003038219 -0.0006224122 0.013243793 0.03584275 -0.04588253 -0.05061554
-0.053540666 -0.0036362906 0.03168263 0.014379886 -0.07013023 -0.026846232 -0.005017521 0.010090419
-0.0018748262 -0.04679096 0.0067902664 -0.01611703 -0.021052273 0.007303071 -0.05187875 -0.028269239
-0.03443359 -0.028457398 -0.04300708 -0.026734896 0.013355773 0.0298721 -0.030983364 0.024662143
-0.019421775 -0.055280685 -0.052054066 -0.014392915 -0.0022671826 -0.04545286 0.009770234 -0.06765291
0.01757662 -0.067794636 -0.060813833 -0.024189584 -0.03316707 0.007109586 -0.0088968 -0.017493015
0.030695012 -0.023025721 -0.07451763 -0.023896612 -0.018557442 0.033591658 -0.02773428 -9.662415e-06
-0.013762293 -0.0021818585 0.024339197 0.015450499 -0.032967754 -0.06519207 -0.011375234 -0.018841743
-0.03167732 -0.021267295 -0.028697662 0.030752037 0.028878031 0.023246732 0.031190753 -0.025014844
-0.026236389 -0.0628604 0.0075670374 -0.04228416 -0.0095684 -0.03611661 -0.04263861 -0.05498254
-0.05382762 -0.022101842 0.025681823 0.00016937913 -0.0044693523 -0.06577776 -0.040168136 -0.06694611
0.015321529 0.0062863138 -0.045475185 -0.07263992 -0.00038991842 0.007211619 0.007822623 -0.05015056
0.026603812 0.009331866 -0.035308525 0.02809756 -0.050285563 -0.043358993 0.0005718274 -0.05191425
-0.027989842 -0.039669238 -0.0023400737 -0.0040342323 0.0050145905 -0.01686241 0.020851597 0.0049307267

fc1.bias f4 [120]
00000000: 4184 053c 0b6c 653e 0850 5e3c df75 17bd
00000010: 6858 31be b15c e0bc d746 4abe 1bca 973d
00000020: 9461 39bd dbf6 81be f6fe f33a d43d 21bd
00000030: 003e 6bbe 753b 55be a574 0bbe fc91 e4bc
00000040: 74b7 b539 92ef cdbc 884a 763d d9a2 80bd
00000050: 7662 893c 13d9 0cbe e42e 4a3c b63c 443c
00000060: f7c5 553d 9cf0 91bd 787a 33bd 05d5 4cbd
00000070: c753 64be 9230 90bd 712d e93b 98bf c03c
00000080: fc35 8cbd 7266 853c 4aa6 ecbd c82b ec3d
00000090: 5b74 adbd 9a16 cabc bb89 d23c 265f 0dbd
000000a0: 0fe7 40be 738b 2fbd ad2f 02be 7f07 6abe
000000b0: 6889 8ebe 3b90 cdbc 00dd a33b 4cee 893c
000000c0: c385 76bd d186 453d 713a f73c b988 96bd
000000d0: 6885 703e 5572 6abd 7207 f73c 5b0c 14be
000000e0: 09cc 23bd 8025 11bd 8805 3fbd 91c4 50bd
000000f0: 0a3c 8e3b 2a6c 90bd 58aa 5abd dffe ed3b
00000100: 9901 2bbe dee3 03bd 5ae4 933d 91c6 a43d
00000110: 0fda 15bd cc2a e0bd 8579 0c3e c3c8 5cbd
00000120: f29c c4bd f4f3 01bd 6e0c 07be c3fa 423c
00000130: d82f f0bd e4cc cbbb 4faa 1dbe 47fe 393d
00000140: b298 06bb 871f 27bd 68a9 0ebe c700 80be
00000150: e0ce 90be 9be9 95be 5ee7 77bc 5160 08bd
00000160: c5f4 85bc c4f1 febb a4e7 bcbd 6781 ea3d
00000170: ee15 30bc 45b6 73bd c6fc 15bd 9c95 ba3d
00000180: 189f 8abb e398 ad3e f46c f13d 44bd 0bbe
00000190: 4f0a ddbd 9cc2 47bd 6159 0abe 4f3a 4bbc
000001a0: b23a 9d3d c03c 0bbe 9aa3 79bc f675 5bbe
000001b0: 248a 27bd 088d bcbe 4215 df3d 94c3 a33c
000001c0: 1cde 57bb b02c a9be c387 2d3c ffd6 7ebb
000001d0: a806 bebd 5b79 02bd 2c45 87be 92db 9abd
0.008149208 0.22404496 0.013568886 -0.036977645 -0.1731888 -0.027387949 -0.19753586 0.074115954
-0.045259073 -0.25383648 0.0018615413 -0.039365605 -0.2297287 -0.20823462 -0.13618715 -0.027901642
0.00034659693 -0.02513865 0.060129672 -0.06281061 0.016770583 -0.13754682 0.012340281 0.011977365
0.052190747 -0.07125971 -0.043817967 -0.05000784 -0.22297584 -0.07040514 0.0071160127 0.023528859
-0.06846234 0.016284201 -0.115551546 0.11531788 -0.08469459 -0.02466898 0.02570044 -0.03451457
-0.18838142 -0.0428576 -0.127135 -0.22854422 -0.27839208 -0.025093189 0.0050007105 0.016837262
-0.06018616 0.048224274 0.030179234 -0.073502965 0.2348839 -0.05723794 0.030154917 -0.14457838
-0.039989505 -0.035436153 -0.046636134 -0.05096871 0.0043406533 -0.07051881 -0.05338511 0.007263049
-0.16699828 -0.032199733 0.07221289 0.08045686 -0.03658491 -0.10945663 0.13718231 -0.0539024
-0.096002474 -0.031726792 -0.13188335 0.011900607 -0.117278755 -0.006219493 -0.15396999 0.045408513
-0.002053779 -0.04080155 -0.13931811 -0.25000593 -0.28282833 -0.2927979 -0.015130846 -0.03329498
-0.016352067 -0.0077802856 -0.092238694 0.11450463 -0.010747416 -0.059499998 -0.036618017 0.09110567
-0.0042303912 0.33905706 0.11788359 -0.13646418 -0.10792982 -0.04876958 -0.13510658 -0.012404039
0.07677211 -0.13597393 -0.01523676 -0.21431717 -0.040903226 -0.36826348 0.108927265 0.01999072
-0.0032938784 -0.33041906 0.01059145 -0.0038885472 -0.09278613 -0.031854015 -0.2641996 -0.07561411

fc2.weight f4 [84, 120]
00000000: 07ee 253d cad2 97be d2a3 bb3e 9609 833d
00000010: f5f3 cdbd 1c4a 813d 8381 4b3e 3af1 513e
00000020: d7e2 ed3d 7e6e 193d eab7 403e ee39 61bc
00000030: 5fdf 53bd f47c 893e 95fd 7ebd a4ea 513d
00000040: 1c09 55be f2fa 293c 479c 5d3d f5cb e53a
00000050: 6aea 0dbe 8bc7 1abe 7150 863d cdd6 53be
00000060: f041 913e 19f5 483e a80d 2c3a 4648 b2be
00000070: fbb2 c8bd ad9e b4be 43da c13c 85a9 143d
00000080: 75cf 513b 88b5 6dbc 4949 253d 60d6 043e
00000090: aba7 5a3d 2af2 c8bd db81 45bd e070 83bd
000000a0: 4245 513d 1fb9 2dbd 9369 a23e ce2e aebe
000000b0: cd7b b3bc 8a4b ffbd c195 cebc 2935 d93c
000000c0: 0ef7 b83b f7f3 68be 6759 fd3a e8bb 2e3d
000000d0: 8136 a3bd 0c47 663d 5b86 bc3b 72f9 f3be
000000e0: 2c1f c2bd 1bc8 8fbe e969 84bd 436e 2cbd
000000f0: 83ec 923d dcc0 88be 5616 643d 9a57 473c
00000100: bbdf 57bd 3281 b03e 9a29 643e c715 0d3c
00000110: 293c 5f3d c29c 7f3e 23bb c9bd fd9b 8c3d
00000120: 7436 19bc 23d1 b2bd f79a 873d c22e e53e
00000130: 8a64 b93d 71eb 13be 7ff7 b0be 30f0 5fbe
00000140: c8b6 88be 5b01 a23d 661d 0c3e 48d1 c2bd
00000150: 7f45 723c 780a 1ebe 3c85 9f3c bf39 0b3d
00000160: 34c9 ef3d f744 44bd e2ac 76be 0f39 48bf
00000170: e2a1 52bd 6f42 413e bdf0 62bd 794b e8bd
00000180: 997f 463d 54bc 28be a5c3 7dbc 1dfd cc3e
00000190: ec63 0bbe 9a95 6f3e 3bfc 01be cc1d 093d
000001a0: a5d4 dfbe 6595 33be 009f 72be c32e e1bd
000001b0: 2a3f 953d 86e0 223e 0e8f 9f3e 42f6 ed3c
000001c0: 8273 33be a0e3 123e 3bd5 8b3c ed4f 4a3d
000001d0: 1a7b ab3e 3c1a 39bd 4e27 ebbc 17c4 4b3e
000001e0: db94 5e3d f270 17bd ee44 aabe f982 87bd
000001f0: 4ce0 2cbd 3b06 6ebd 1eed b2bc 745a 88be
00000200: f14f b23b 4b5d 673e b938 58bd 5328 34bd
00000210: 83b3 2d3e 584c 593e fc19 87bd 8c94 083e
00000220: c1d1 4fbe 79ab 6b3d 83ec a1bd b5e8 16bd
00000230: 31a2 7fbe dbef 5dbe df33 413e 60ea b03c
00000240: c858 9cbd ecef 013e 39bf 5a3d 7c46 e5bd
00000250: e235 f6bd a2ea bf3d e371 153d 3ba3 dfbd
00000260: e091 0fbd 6f45 173d 04a9 4d3c f1fa 9e3d
00000270: 7236 483d 0944 65be 7965 a13d fdfb 58be
00000280: 5444 60bd bb29 e73c 656d 81be 767e 663d
00000290: b3bf 3bbe a571 983e e778 3c3c 1f36 133d
000002a0: 264e 8bbe 9ba0 9cbd 8a4f fa3d 3d22 ec3c
000002b0: 5fdf cabd bd16 a739 f571 b2be 809a 443e
000002c0: cea1 b6bc d789 97bd c1ba 11be e744 a73d
000002d0: 58a8 4bbd 5ccd 333e ff78 333d 6ee1 a2be
000002e0: 34ea c13e d66d 0d3e d0f8 cc3e 9854 47be
000002f0: 9886 30bd 71ff 523e 8892 39be aabe 6fbd
00000300: f2e8 e43c 140e 6cbd c9e3 333e e327 123e
00000310: c8fe 84bd 22db 463e 3c0e 903e 89fa 82bd
00000320: 1cfe cf3d 282d e13c 3d8c 613e 333d 5d3d
00000330: ba36 6fbd 5748 733e de39 243d 5105 40bd
00000340: cbe2 1ebe 081b e33c 3509 cdbc 82de 9abd
00000350: 0360 0f3d cfaa cebc de54 5e3d 030f 273e
00000360: bc8d 6ebd a541 aebd e982 47be 70fa 8e3e
00000370: c702 443e 11df 7b3e a695 07bc ff50 8f3e
00000380: 66c1 ce3d 7144 a73e 0c6c d9bd 6e3a 0a3e
00000390: 49f3 77bc c6ac 153b 2656 38be daf6 34be
000003a0: cd5e 773e d35e 13bc 786b 563c da7d 51bd
000003b0: a40b 05be 5763 ae3d 5ca7 f93d fecb 873e
000003c0: 42f3 403d 5b4b 02be e007 233e 9ece fc38
000003d0: e572 16bc f67e 653a b77d 86bc 51e9 fe3d
000003e0: 5c24 923d c471 1b3e fe53 693d 1f75 aebd
000003f0: 38b5 01be 6cc3 76bd 6aaa 6a3d 634f ef3b
0.040510204 -0.29653007 0.36648422 0.06398313 -0.10056297 0.06312963 0.19873624 0.20502177
0.11615532 0.03745889 0.18820158 -0.013746722 -0.051726695 0.26853144 -0.062253553 0.05124916
-0.20804256 0.010374771 0.054104116 0.0017532097 -0.13858953 -0.15115182 0.06558312 -0.20687409
0.2837062 0.19624747 0.0006563314 -0.34820765 -0.09799763 -0.3527731 0.023663646 0.03629448
0.0032014523 -0.014508612 0.040353093 0.12972403 0.053382557 -0.09811814 -0.048219543 -0.064180136
0.05109144 -0.042412873 0.31721172 -0.34020084 -0.021909619 -0.1246558 -0.025217893 0.026514607
0.0056446856 -0.22749315 0.0019329012 0.04265967 -0.0796938 0.0562201 0.005753321 -0.4765125
-0.09478602 -0.28082356 -0.06465513 -0.04209734 0.07174017 -0.2670964 0.055685364 0.012166882
-0.0527036 0.34473568 0.22281495 0.008611149 0.054500733 0.24962142 -0.098501466 0.0686569
-0.009351362 -0.08731296 0.06621354 0.44762236 0.090523794 -0.14445283 -0.34563825 -0.21868968
-0.2670195 0.07910415 0.1368309 -0.095125735 0.014787077 -0.15433681 0.01947271 0.033990618
0.11708298 -0.047917333 -0.24089387 -0.78212065 -0.051423915 0.18872999 -0.055405367 -0.1134252
0.04846153 -0.16478091 -0.01548854 0.4003686 -0.13612336 0.23396912 -0.12693875 0.033475682
-0.43716922 -0.17537458 -0.23693466 -0.10995247 0.07287438 0.15905961 0.3116383 0.029048089
-0.17524531 0.14344645 0.01706945 0.04939263 0.33492357 -0.045191035 -0.028705265 0.19899021
0.05434118 -0.036972947 -0.33255714 -0.06616778 -0.042206094 -0.05811141 -0.021841582 -0.2663151
0.0054416587 0.22594182 -0.05278847 -0.04398377 0.1696301 0.21220529 -0.06596753 0.13337916
-0.20294859 0.057536576 -0.07906439 -0.03684302 -0.24964215 -0.21673529 0.18867444 0.021596134
-0.07634121 0.12689179 0.05340502 -0.111950845 -0.12021996 0.093709245 0.036485564 -0.109198056
-0.035051227 0.03693145 0.0125525035 0.07762707 0.048880048 -0.22389235 0.078806825 -0.21189876
-0.054752663 0.02821814 -0.25278774 0.056272946 -0.18334846 0.29774204 0.011503435 0.035940286
-0.2720806 -0.076478206 0.12222202 0.02882492 -0.09905886 0.00031869664 -0.34852567 0.19199562
-0.022293951 -0.07399338 -0.14231397 0.08167439 -0.049721092 0.17558807 0.043816563 -0.31812614
0.37873995 0.1381143 0.4003358 -0.19465864 -0.04309711 0.20605256 -0.18122303 -0.05853144
0.027943108 -0.057630613 0.17567362 0.14273028 -0.06493908 0.1941953 0.2813586 -0.06395442
0.101558894 0.027487352 0.22026153 0.054013442 -0.0584018 0.23758064 0.04009425 -0.04688007
-0.15516202 0.02772285 -0.025028804 -0.07561971 0.035003673 -0.025227932 0.054280154 0.1631432
-0.058240637 -0.085086145 -0.19483532 0.27925444 0.19141684 0.24596812 -0.008275425 0.27991483
0.100954816 0.32669404 -0.106163114 0.13498852 -0.015133687 0.0022838577 -0.18001613 -0.17672291
0.24157257 -0.008994776 0.013087146 -0.051145412 -0.12992722 0.08515041 0.121901244 0.2652282
0.04710699 -0.12724058 0.15920973 0.00012054782 -0.009182666 0.00087545754 -0.016417367 0.12446845
0.07135841 0.15180117 0.056964867 -0.08518433 -0.12666786 -0.060244963 0.057291426 0.007303165

fc2.bias f4 [84]
00000000: d8f8 4d3d 9e50 c5bb 2531 2b3d 9219 0f3d
00000010: ff29 4cbe 3c4f f1bd 4518 cf3d 9144 02bd
00000020: 5fbd 3fbd 1f43 1dbe c553 87be 6722 51be
00000030: c473 093e 799f 43be 07b1 443d 05e2 44be
00000040: a9b6 153c d2ba 2ebe 68f2 8a3a c2cc 903c
00000050: 4be3 dcbd 12df 9a3d aedc 28ba 3102 8abc
00000060: 89e6 793d fd3b cd3d 4169 3f3e 82ad 813e
00000070: 682a bdbc e002 c7be cb75 54be 0974 a93b
00000080: 91a6 cbbb a73f b53d 29f2 afbc cb01 69be
00000090: 815d 07be 6d56 b8bd 2ebe e6bd 6b5d 1abd
000000a0: b4e8 b4bd 43f9 89be 0cd5 213e 2ffb a13d
000000b0: 152b 083e a728 00be 0544 103e b04c c2bd
000000c0: 502b 3bbd 4da3 03be 1083 30be e2de 31be
000000d0: 4f98 63bd b24e 76bd 7509 efbd 162c 5cbd
000000e0: eaff 0abe 53bb 273d c52c 3f3c 5f37 c5bc
000000f0: 311a 51bd b747 82bd f837 0b3e 5e5b e53c
00000100: e6c7 82bd 3bf1 1e3e cc12 d63d 5c8f 093d
00000110: 2688 42be 4f4c e83d 51a5 0abe 02d2 77be
00000120: 79b5 173e 7a42 38be 0ef2 f1bd 48cc d53c
00000130: 1cae b53d 06ec 94bd f2e8 dbbd 4609 4cbd
00000140: 359a a9bd 20b0 1abd 5c84 9d3b 978a 04bd
0.050286144 -0.006021573 0.041794915 0.034936495 -0.19937895 -0.11782691 0.10112051 -0.03180367
-0.046811458 -0.15357636 -0.264311 -0.2042328 0.13423067 -0.19103803 0.04802039 -0.19226845
0.009137788 -0.17063454 0.0010600807 0.017675761 -0.1078554 0.075620785 -0.0006441575 -0.016846748
0.06101087 0.100212075 0.18692495 0.25327688 -0.02309151 -0.3886938 -0.2074806 0.005171303
-0.0062149246 0.08850031 -0.021477776 -0.2275459 -0.13219263 -0.090008594 -0.11266743 -0.037686747
-0.08833447 -0.26947984 0.15803927 0.079092376 0.13297684 -0.12515508 0.14088447 -0.09487283
-0.045695603 -0.12855263 -0.17237496 -0.1737018 -0.055565175 -0.060133643 -0.11671726 -0.05375298
-0.13574186 0.04095013 0.011668389 -0.024074255 -0.05105037 -0.06361335 0.13595569 0.027997669
-0.06385784 0.1552171 0.10452804 0.033583984 -0.18997249 0.1134268 -0.13539626 -0.24201205
0.1481532 -0.17994109 -0.118137464 0.026098385 0.08871099 -0.072715804 -0.1073779 -0.04981353
-0.08281366 -0.037765622 0.004807038 -0.032358732

fc3.weight f4 [33, 84]
00000000: ab90 42be 8283 f7be 4f58 333e 3ac7 16bf
00000010: 3bea fcbe b502 21be e3fc 38be 4fa4 0abb
00000020: 1ca0 7a3e 4b32 03be 8186 f8be 26f1 02bf
00000030: 2815 8a3d 1fda 1ebe 6837 f5bd a158 b4be
00000040: d590 fcbe b3f3 89bd d297 a2be d434 78bd
00000050: 0806 cbbe cec2 953d d6cf 84bd 3517 583e
00000060: 8eba 5fbb f8f6 e5be a656 19bf 25ba 063e
00000070: d3d8 343e 7e32 9dbe ddd2 c9be 2a81 a8bf
00000080: 27fd f5be fa2c bbbe 9425 9fbe 0b8e 36bf
00000090: f870 19bf 689d 4fbf 36a4 2fbf 0aa9 70be
000000a0: 509f 303e 27c5 dfbe 440f 04be 1d75 b4be
000000b0: 2a0b d93c 9703 89bf 35a3 80be f735 2bbf
000000c0: 66d5 aebd fc06 203e 40eb c6be aaa3 8abd
000000d0: 511c 9dbe 1309 893c be49 43be 1096 cabe
000000e0: 3141 83be 572c b9be 1398 02be 5f9b f7be
000000f0: a3f1 77bb f6eb babd 3bd6 b2be 1b19 27bf
00000100: e9fc 31be bb7a 1dbf 1f17 823d ece2 83bb
00000110: 1f62 55bf ce5e edbe d35c 80bd cf07 853d
00000120: 3111 adbb 503d d1be 56c1 96bd 2d42 86bb
00000130: 00bb c23d 984e cebd 62fb 37be c49b 1bbe
00000140: 821e a7bf 398e bb3c 9189 bd3d ed80 10bf
00000150: fa4d 0cc0 9e05 6a3b 9313 bbbd 2354 393e
00000160: db47 38bf 1dc9 0bbf 1cb5 f33d ad63 8ebe
00000170: b97b babe a794 80bd f598 dfbe 40cf 19bf
00000180: b41c ca3d e911 8ebe 1122 013d 8d62 d5bd
00000190: a727 85bf 0cf7 123c e835 90bd d6aa 3d3c
000001a0: d772 193e b02d bebe 7b1a ba3d 8ded 0dbf
000001b0: 9aa2 4bbe 1428 ddbd 40c5 e1be b180 bebb
000001c0: 2baf c6be 7345 a43d 1cb8 bdbe c163 2dbe
000001d0: c909 96be e13b afbe f44f 1cbd 2ad3 0abe
000001e0: 9741 d2be ac88 35be 527d 90be 05ac a0bf
000001f0: cb84 453e 8199 ebbe 724c 1a3e d152 92bf
00000200: 28b9 72be 6743 1e3e 7198 4fbf 395f 663e
00000210: 4105 9fbe c7d8 8bbe ee6a 65bf 983c aabd
00000220: 84a6 abbe a268 9ebe f352 22bf 538b 2fbe
00000230: deea 1d3e c451 bcbe 11a3 76ba 83b6 8fbf
00000240: 6d2f 19bc b292 5ebf c210 b7bd 3cb6 ff3d
00000250: 0d42 a5bc 7160 50bf 2142 23bf 8512 90be
00000260: 45ce 08bf 6187 83be ce7d 08bd d033 0c3e
00000270: 8ec6 38be d89b b8bd 8b70 c0bd 2d97 963d
00000280: 18a3 cebd 393c 13be 4463 28be b0d5 5bbd
00000290: 268d 533e 4db3 27bf 907a dfbe 6ad2 67be
000002a0: e208 03bf 59e5 eb3d 3aa1 02be 237b e7bd
000002b0: 9d80 8e3e a91e 09bf 392f 50bd e52e 92be
000002c0: 8639 94be 24b5 3b3d a9ce 94be 5b39 ddbe
000002d0: de0b b5bc 7a1e 17be 35db f8bb f801 19bf
000002e0: cefd 3abf 4399 63bd 221e 97be d2f3 f13c
000002f0: 3dff 863d 36eb 89be ef00 f13c d83f a4be
00000300: 3bcc 833e 39c7 f83b cc9d b9be 7b64 043e
00000310: 1b10 2bbf 683b 45bf 28cc 4bbf 2770 93be
00000320: 5736 0dbb 8929 29bf df2b b63d 1b5b 3ebd
00000330: 3fee 57be 4877 22be cb88 3cbf 5c75 22be
00000340: 65d7 23bf 3619 d7bd b116 ddbe cbb0 93bf
00000350: d03a ce3d 7e67 0dbf e8d7 ef3d 7b08 47bd
00000360: 77ae 94be 42e4 09bf 1b67 d63e 1125 b53b
00000370: 4c28 54bd 8013 4c3d 7554 a53c b652 33be
00000380: 2407 6cbe 25f5 78bd 9f0f b9bd f0a0 bbbe
00000390: 8fe9 fd3d ae3a 23bf 2f5e de3d a321 8dbd
000003a0: ab6f 76be 5f16 4c3e eaac 38be effc e1be
000003b0: 761b 343e ec6b 0ebf 60cd 803c 146c d63d
000003c0: 8958 75be 4512 0f3e 235c 14bf e1a9 5cbc
000003d0: 6573 593e c120 b7bf acfe 89bd dfde 26be
000003e0: d089 f73d efce 8e3c c549 4bbf 453e 8abe
000003f0: 06fa 8cbe afeb 10be 9bac 9ebe 950a 90bf
-0.19000499 -0.4834252 0.17514156 -0.58897746 -0.49397454 -0.15723689 -0.18065219 -0.0021155064
0.2447514 -0.12812154 -0.48540118 -0.51149213 0.067423165 -0.15512894 -0.119734585 -0.35223868
-0.49329248 -0.06735935 -0.31756455 -0.060597256 -0.3965304 0.07312547 -0.06484954 0.21102603
-0.0034138295 -0.44914985 -0.5989784 0.13156946 0.17660837 -0.30702585 -0.39418688 -1.3164418
-0.48044702 -0.36557752 -0.31083357 -0.7131049 -0.59938 -0.8109956 -0.6860994 -0.23501983
0.17248273 -0.43705103 -0.12896448 -0.352456 0.026494581 -1.070422 -0.25124517 -0.6687922
-0.08536796 0.15627664 -0.38851357 -0.06769498 -0.30685666 0.01672796 -0.19071099 -0.39567614
-0.25635675 -0.3616664 -0.12753324 -0.48360726 -0.0037833236 -0.09127037 -0.3492907 -0.6527268
-0.17381634 -0.61515397 0.06352066 -0.004024854 -0.83352846 -0.46361393 -0.06267705 0.0649563
-0.0052815904 -0.4086709 -0.07361095 -0.0040972442 0.09508324 -0.10073584 -0.17966989 -0.15196139
-1.3056185 0.022894965 0.09254754 -0.56446725 -2.1922593 0.0035708915 -0.09134593 0.18098502
-0.7198464 -0.5460375 0.11899778 -0.27810422 -0.36422518 -0.06278353 -0.43671384 -0.60081863
0.09868756 -0.2774804 0.03152663 -0.10419188 -1.0402726 0.008970033 -0.07041532 0.011576375
0.14985214 -0.37144232 0.09087082 -0.554406 -0.19886246 -0.1079866 -0.44095802 -0.005813681
-0.38805518 0.08021059 -0.37054527 -0.16932584 -0.2930434 -0.3422537 -0.038162187 -0.13557115
-0.41065666 -0.17727917 -0.28220612 -1.2552496 0.19288938 -0.46015552 0.15068224 -1.1431524
-0.23703444 0.154554 -0.8109198 0.22497262 -0.31058696 -0.27313825 -0.89616287 -0.083123386
-0.3352548 -0.30939204 -0.6340782 -0.17142992 0.15421626 -0.36781132 -0.0009408454 -1.1227573
-0.009349686 -0.8694259 -0.08938743 0.1248593 -0.020173097 -0.8139716 -0.6377278 -0.2813913
-0.5343974 -0.25689223 -0.0333231 0.1369164 -0.18044493 -0.090141 -0.09396466 0.07353053
-0.100897014 -0.14378442 -0.16444117 -0.053670585 0.20659313 -0.65507966 -0.43648195 -0.2263886
-0.5118543 0.11518354 -0.12756816 -0.11302783 0.278325 -0.5356241 -0.050826285 -0.28551403
-0.28950137 0.045827046 -0.2906392 -0.4320782 -0.022100385 -0.1475772 -0.007594491 -0.5976863
-0.73043525 -0.055566084 -0.29515177 0.029535208 0.065916516 -0.26937264 0.02941939 -0.3207996
0.25741753 0.0075921086 -0.36253202 0.12928955 -0.6682145 -0.7704377 -0.7960839 -0.28796503
-0.0021547282 -0.66079 0.088950865 -0.046473604 -0.21086977 -0.15865815 -0.7364623 -0.15865082
-0.6400054 -0.105028555 -0.43181375 -1.1538328 0.10069811 -0.5523604 0.11711103 -0.048592072
-0.29039356 -0.5386392 0.41875538 0.0055281003 -0.051796243 0.049823284 0.020181874 -0.1751202
-0.23049599 -0.060780663 -0.090361826 -0.36646223 0.123980634 -0.63761413 0.10857808 -0.06891181
-0.24066035 0.19930409 -0.18034711 -0.44138286 0.175886 -0.55633426 0.01572293 0.10469833
-0.23959555 0.13971813 -0.5795309 -0.013468237 0.21235426 -1.4306871 -0.06738028 -0.16295956
0.120868325 0.017432658 -0.7940944 -0.27000633 -0.27534503 -0.14152406 -0.30991063 -1.1253229

fc3.bias f4 [33]
00000000: 5401 c0bc c7ac 4f3e 4709 83be 1899 db3c
00000010: 525c 00be 5719 5fbe 22a3 2abc 92c8 f3bc
00000020: 5765 503e 682c 15be 05bd 533e fee2 3a3e
00000030: 6528 4e3d 679a 213d fcad f03d a667 f43d
00000040: a467 65be 7866 913e 0d9a e33d 9ab0 82bd
00000050: 6cd5 033e e40f 6bbe 9ef1 a93d 6ea0 2bbe
00000060: 3cbc 4ebe 7fd2 4abb 8aec 66be 7364 4b3e
00000070: 2188 6ebd 793b 743c 7d68 3bbd 0c10 8abd
00000080: 0ac2 233c
-0.023438133 0.20280753 -0.25593016 0.0268064 -0.12535217 -0.2178701 -0.01041487 -0.029758725
0.20351158 -0.14567721 0.20677574 0.18250653 0.050331492 0.03945389 0.11751935 0.11933832
-0.22402817 0.2839849 0.11113367 -0.0638134 0.12874383 -0.2295528 0.08298038 -0.16760418
-0.20188993 -0.003094822 -0.2255117 0.19862537 -0.05823529 0.0149067575 -0.045753945 -0.06741342
0.009994993
